Model: "sequential_21"
_________________________________________________________________
Layer (type)                 Output Shape              Param #
=================================================================
reshape_21 (Reshape)         (None, 600, 1)            0
_________________________________________________________________
conv1d_42 (Conv1D)           (None, 551, 30)           1530
_________________________________________________________________
conv1d_43 (Conv1D)           (None, 549, 50)           4550
_________________________________________________________________
global_average_pooling1d_19  (None, 50)                0
_________________________________________________________________
dropout_20 (Dropout)         (None, 50)                0
_________________________________________________________________
dense_21 (Dense)             (None, 6)                 306
=================================================================
Total params: 6,386
Trainable params: 6,386
Non-trainable params: 0
_________________________________________________________________